cifar_net.pth (torch_old, 249562 bytes, 10 tensors)

conv1.weight f4 [6, 3, 5, 5]
0.0045387032 0.08422532 -0.040575404 -0.001069843 0.021201618 -0.05798001 -0.087400354 -0.18504718
-0.16279243 -0.07740445 -0.24212724 -0.16859438 -0.25240952 -0.20638284 -0.13980241 -0.17246284
-0.14635757 -0.16327181 -0.24178421 -0.30040547 -0.08360349 -0.111341044 -0.27568638 -0.10533546
-0.1918467 -0.050047655 -0.06868701 0.01837392 0.09946583 0.026495678 -0.1089829 0.053993877
0.034126095 0.07965518 -0.13710804 -0.011236581 0.050394367 0.07267238 -0.052943055 0.036123447
0.0101428125 0.012230554 0.031842165 -0.0045044725 0.062047537 -0.08704026 0.07220159 0.01985935
-0.045083288 -0.0904972 0.33876264 0.3039061 0.26878837 0.07699658 0.14945714 0.14110246
0.053526603 0.103619665 0.19218412 0.093483396 0.18495414 0.25229588 0.14206457 0.29477826
0.073797196 0.14775832 0.095019996 0.08498927 0.10728756 0.079696834 0.2084284 0.14639051
0.13286652 0.16848913 0.0026150066 -0.1459854 0.23292418 -0.24720055 -0.40686363 0.2904679
-0.08978593 0.44660956 0.1868766 -0.77117807 -0.01998815 -0.011321578 0.2311927 0.23278451
-0.4670732 -0.0004696738 0.09827322 0.018980438 -0.09222702 -0.16850717 0.029425247 0.1659329
-0.09268348 -0.1349328 0.048582166 0.023588592 0.060099028 0.2736284 -0.08529016 -0.28459343
0.20725104 -0.021094032 0.55523485 0.26393646 -0.75148135 -0.016454345 0.020489775 0.3924014
0.21885453 -0.49443728 -0.043863103 0.33035514 0.05138909 -0.058038753 -0.22827177 0.067251615
0.2761967 -0.08755779 -0.086044766 0.11848212 -0.062451832 -0.21594357 0.13937397 -0.31567
-0.3386754 0.30520132 -0.13453034 0.5063837 0.10157224 -0.70767564 0.1703287 -0.04744889
0.19849204 0.22357002 -0.3844103 0.046566535 0.2481741 0.094123416 0.017349841 0.001010475
0.110009216 0.024272451 -0.1409063 -0.15963961 0.007723512 0.060243692 0.17984374 -0.047477264
-0.1823574 -0.19129683 -0.12783395 0.29678953 0.38157174 0.29000852 0.2998899 0.12903523
0.15980846 0.32644394 0.4161039 0.40860522 0.1788315 -0.30232096 -0.3780952 -0.35458276
-0.22230554 -0.22184485 0.025008427 -0.42097145 -0.51848936 -0.3292608 -0.17807539 -0.15715341
-0.1740711 -0.34987304 -0.31742507 -0.02482423 0.0070783785 0.18868256 0.12871797 0.248126
0.23028387 0.15263356 0.31202725 0.64069915 0.59318507 0.26886752 -0.3047083 -0.361919
-0.106076844 -0.13815992 -0.27826604 0.10247723 -0.23186304 -0.4430631 -0.20656094 -0.10880779
-0.18563487 -0.3148719 -0.4208465 -0.31499663 -0.10326328 -0.021721555 0.023144828 0.06901802
-0.032213893 0.05139186 -0.010621497 0.27606434 0.4866185 0.42461202 0.23626703 0.08400592
0.0022723295 0.038245115 -0.125832 -0.17924304 0.35725832 0.15236694 -0.028782941 -0.085781485
0.10626863 -0.2332457 -0.2881483 -0.2198381 -0.10301777 -0.21228617 -0.1028754 -0.2311093
-0.17521107 -0.19068085 -0.06279299 0.047506843 0.117716454 0.06784981 -0.022816889 -0.10349317
-0.03937092 0.03281407 -0.017578209 0.08432335 0.08096405 0.12372261 0.13468827 0.13115147
0.18731031 0.17041233 -0.10026474 -0.12600385 -0.20234072 -0.23645523 -0.15921697 -0.111260444
00000000: 67b9 943b 537e ac3d 6532 26bd f939 8cba
00000010: 04af ad3c 727c 6dbd f5fe b2bd 027d 3dbe
00000020: 0fb3 26be 3986 9ebd 34f0 77be 01a4 2cbe
00000030: d23b 81be 0656 53be 5d28 0fbe 199a 30be
00000040: c2de 15be ba30 27be 4896 77be bfce 99be
00000050: 4e38 abbd c606 e4bd c426 8dbe 1eba d7bd
00000060: 7673 44be c5fe 4cbd c6ab 8cbd e784 963c
00000070: beb4 cb3d 770d d93c 6d32 dfbd af28 5d3d
00000080: cec7 0b3d 4122 a33d 0d66 0cbe a319 38bc
00000090: 536a 4e3d 42d5 943d d1da 58bd 2ef6 133d
000000a0: 0a2e 263c a962 483c ee6c 023d 419a 93bb
000000b0: 8f25 7e3d 2a42 b2bd 6dde 933d 13b0 a23c
000000c0: 41a9 38bd 9956 b9bd 4c72 ad3e 9599 9b3e
000000d0: a19e 893e 62b0 9d3d 4b0b 193e 2a7d 103e
000000e0: b63e 5b3d 8c36 d43d eacb 443e 3974 bf3d
000000f0: 9e64 3d3e ed2c 813e 6079 113e 2ded 963e
00000100: fc22 973d f54d 173e d899 c23d db0e ae3d
00000110: 95b9 db3d 1838 a33d 416e 553e 65e7 153e
00000120: 290e 083e 6a88 2c3e 8860 2b3b 327d 15be
00000130: ad83 6e3e 2422 7dbe 6e50 d0be 35b8 943e
00000140: b0e1 b7bd 02aa e43e 945c 3f3e ed6b 45bf
00000150: 30be a3bc 247e 39bc c7bd 6c3e 105f 6e3e
00000160: 3824 efbe 8d3e f6b9 7843 c93d dd7c 9b3c
00000170: 85e1 bcbd 258d 2cbe 370d f13c 50ea 293e
00000180: d6d0 bdbd d32b 0abe 18fe 463d dd3c c13c
00000190: 662a 763d 0619 8c3e 9bac aebd 3bb6 91be
000001a0: 9e39 543e 64cd acbc df23 0e3f ae22 873e
000001b0: 1561 40bf 43cb 86bc 2cda a73c d6e8 c83e
000001c0: 671b 603e e226 fdbe cca9 33bd 4f24 a93e
000001d0: 5e7d 523d 0bba 6dbd 13c0 69be 37bb 893d
000001e0: a769 8d3e 8051 b3bd 3d38 b0bd c1a6 f23d
000001f0: 7ecd 7fbd 5020 5dbe 0db8 0e3e 809f a1be
00000200: dd66 adbe 5943 9c3e 52c2 09be 5da2 013f
00000210: 1b05 d03d 3b2a 35bf a66a 2e3e c459 42bd
00000220: 7f41 4b3e 8aef 643e 6dd1 c4be 8dbc 3e3d
00000230: 5a21 7e3e c7c3 c03d 4121 8e3c ea71 843a
00000240: 834c e13d 05d7 c63c be49 10be 9178 23be
00000250: 8415 fd3b 17c2 763d f528 383e 8577 42bd
00000260: e6bb 3abe 51e3 43be e7e6 02be ccf4 973e
00000270: 5f5d c33e ff7b 943e 2b8b 993e d021 043e
00000280: d4a4 233e a923 a73e 920b d53e b434 d13e
00000290: 9b1f 373e d0c9 9abe b295 c1be df8b b5be
000002a0: 10a4 63be 4c2b 63be 79de cc3c 9289 d7be
000002b0: b8bb 04bf df94 a8be 6559 36be d3ec 20be
000002c0: b23f 32be 8f22 b3be 8a85 a2be 2f5c cbbc
000002d0: bef1 e73b 0036 413e a5ce 033e be14 7e3e
000002e0: 89cf 6b3e f94b 1c3e 09c2 9f3e dc04 243f
000002f0: fada 173f 01a9 893e ba02 9cbe 724d b9be
00000300: d13e d9bd cb79 0dbe e378 8ebe 95df d13d
00000310: 816d 6dbe 2bd9 e2be b684 53be 9ed6 debd
00000320: 1117 3ebe e436 a1be 3179 d7be 3d47 a1be
00000330: b37b d3bd 67f1 b1bc 399a bd3c 5259 8d3d
00000340: b7f2 03bd 4580 523d ca05 2ebc 4e58 8d3e
00000350: 0f26 f93e bf66 d93e fcef 713e 4c0b ac3d
00000360: 5deb 143b e9a6 1c3d 1bda 00be 7d8b 37be
00000370: 90ea b63e 1406 1c3e 34ca ebbc 34ae afbd
00000380: 5ea3 d93d f6d7 6ebe 2d88 93be 3d1d 61be
00000390: fbfa d2bd 8c61 59be 56b0 d2bd eba7 6cbe
000003a0: 886a 33be d741 43be 9c99 80bd 8996 423d
000003b0: 5315 f13d d7f4 8a3d 7cea babc 3af4 d3bd
000003c0: 6743 21bd 0c68 063d 2d00 90bc b8b1 ac3d
000003d0: 7bd0 a53d 4862 fd3d b9eb 093e 924c 063e
000003e0: 46ce 3f3e 9280 2e3e 9a57 cdbd 2707 01be
000003f0: 6832 4fbe 5221 72be c609 23be 84dc e3bd

conv1.bias f4 [6]
0.5174113 -0.1705224 -0.5034224 -0.2257235 -0.42948306 0.18640544
00000000: 1175 043f 6d9d 2ebe 4ae0 00bf 1024 67be
00000010: 34e5 dbbe 11e1 3e3e

conv2.weight f4 [16, 6, 5, 5]
-0.13395445 -0.06345794 0.07227665 0.119631805 0.12262147 -0.24986294 -0.095746316 -0.034946203
0.087100185 0.14364517 -0.28704342 -0.1759766 -0.043923054 -0.054726947 0.17419586 -0.3131619
-0.20983678 -0.10354046 -0.044354517 0.061931945 -0.3283993 -0.16325629 -0.1751864 -0.008541322
0.1262769 -0.030458067 0.11304912 -0.055139158 -0.060017146 0.0831135 0.19603989 -0.05468
-0.07517674 0.060935106 -0.026857663 0.036593698 -0.20738219 0.2865478 0.16290306 -0.061333694
0.03736302 0.062379472 0.1856437 -0.0934733 0.31633916 0.06891383 0.26064634 -0.05006012
0.19168916 0.102198064 0.115100674 0.03875435 -0.08052915 0.0745896 -0.009536744 0.04089868
-0.07314143 -0.009056782 0.12072315 0.048216645 0.0054594944 0.18146855 0.10562808 -0.056288432
-0.037302803 0.13367498 0.07531472 -0.0075834324 0.06643763 0.13817132 0.024832563 -0.0833146
0.19417125 0.023307547 0.0061622993 -0.028027255 -0.004011646 0.0406142 0.051401034 0.029849138
-0.043460123 0.0012834225 -0.0012802294 0.023658663 -0.047630504 -0.003676181 -0.072321646 -0.08081692
-0.07331514 -0.017439382 -0.04060542 -0.06129446 0.024504846 -0.07911306 0.018821165 -0.14569733
-0.024964398 -0.058304727 -0.028109381 -0.005069958 0.037915684 0.09627775 0.1273255 -0.0706332
-0.015681127 0.09504666 0.02814946 -0.14744058 -0.08121399 0.090333216 -0.17837486 -0.14866853
0.03778867 0.004836002 -0.11644372 -0.19845565 -0.055689316 -0.011649102 -0.03222015 -0.051959373
-0.13597469 -0.04727549 -0.26430598 0.02994095 0.07986886 -0.07809475 -0.14948325 0.04890651
-0.030490303 0.052930754 -0.16165808 -0.062798664 -0.039509438 -0.037406996 0.042489886 -0.13196951
0.0066716196 -0.033995744 -0.07208436 0.045278948 -0.12365486 -0.13833058 -0.18901013 -0.035926845
-0.012324086 -0.01628937 -0.098279804 0.07233873 0.057365075 0.08732711 0.12249248 0.056960948
0.026709149 -0.070483096 -0.07698025 0.046251252 0.11084933 -0.014187093 -0.11451501 -0.10936221
-0.005961708 0.03327445 0.06029555 -0.026710581 -0.16389833 0.07959125 0.07792649 -0.044220783
-0.05831413 -0.08264027 0.0019284772 -0.01828124 -0.031201871 -0.052126184 -0.084708594 -0.029481916
-0.034347642 -0.1416999 -0.14650059 0.12781923 -0.14338435 0.27207807 -0.03405495 -0.20733778
0.25175232 -0.37943265 0.41685325 0.075661264 -0.28144774 0.29696724 -0.28011107 0.47979817
0.19449916 -0.12333212 0.24556023 -0.22319324 0.28226423 0.12297975 -0.1607776 0.021960482
0.08281382 -0.013690346 0.003418117 0.029295 0.06308842 0.056481585 -0.04207538 -0.026597535
-0.027536755 -0.088692345 0.17335357 -0.065046735 0.008451655 -0.041332033 -0.040453777 0.02052355
-0.119929805 -0.12319171 -0.09836171 -0.096424624 0.019760855 -0.06381661 -0.06654174 0.011969803
-0.018764002 0.079871714 -0.03139801 -0.030488702 -0.0038616366 0.0029037383 0.011056048 -0.03557506
-0.020404743 -0.04855115 -0.035315722 0.0039275703 -0.042457886 -0.013794117 -0.06987996 -0.004383787
0.09523248 -0.021094278 -0.013562474 -0.08931758 -0.029243149 0.10556168 0.17620583 0.07835114
0.07238735 -0.024907654 0.13646288 0.06222793 0.039638884 -0.068731025 0.0036982945 -0.037765477
00000000: 5b2b 09be 3df6 81bd c805 943d 8501 f53d
00000010: f720 fb3d 12dc 7fbe a516 c4bd c023 0fbd
00000020: 9561 b23d b817 133e 5bf7 92be 3633 34be
00000030: a9e8 33bd 5d29 60bd 6660 323e c256 a0be
00000040: 74df 56be 050d d4bd 15ad 35bd 5aac 7d3d
00000050: f423 a8be a82c 27be 1064 33be e7f0 0bbc
00000060: bb4e 013e 3283 f9bc 4c86 e73d 99d9 61bd
00000070: 8ad4 75bd 6937 aa3d aebe 483e 23f8 5fbd
00000080: 43f6 99bd 1797 793d 9a04 dcbc 46e3 153d
00000090: ff5b 54be 65b6 923e 0fd0 263e 0a39 7bbd
000000a0: f709 193d 9e81 7f3d 6219 3e3e ee6e bfbd
000000b0: 35f7 a13e b222 8d3d 7073 853e d70b 4dbd
000000c0: 2a4a 443e 384d d13d e7b9 eb3d e2bc 1e3d
000000d0: 78ec a4bd 6fc2 983d 0140 1cbc 6085 273d
000000e0: 2dcb 95bd e662 14bc b33d f73d d17e 453d
000000f0: 8fe5 b23b e4d2 393e 8953 d83d b38e 66bd
00000100: d3ca 18bd 18e2 083e 9b3e 9a3d 717e f8bb
00000110: 7410 883d c87c 0d3e a96d cb3c d8a0 aabd
00000120: d4d4 463e 78ef be3c 1ded c93b 6a99 e5bc
00000130: 2074 83bb 135b 263d e489 523d 2e86 f43c
00000140: 3e03 32bd 8338 a83a 5fcd a7ba d0cf c13c
00000150: 3418 43bd 15ec 70bb 5f1d 94bd 5783 a5bd
00000160: 4026 96bd 09dd 8ebc de51 26bd e60f 7bbd
00000170: 63be c83c 0706 a2bd d82e 9a3c ae31 15be
00000180: 2382 ccbc f0d0 6ebd a545 e6bc e421 a6bb
00000190: 7a4d 1b3d 452d c53d 9e61 023e 24a8 90bd
000001a0: b575 80bc d3a7 c23d b299 e63c aafa 16be
000001b0: 8553 a6bd 9f00 b93d e6a7 36be 903c 18be
000001c0: 4bc8 1a3d 5377 9e3b 0c7a eebd f537 4bbe
000001d0: 7b1a 64bd e0db 3ebc 47f9 03bd 5ad3 54bd
000001e0: f33c 0bbe f2a3 41bd 1d53 87be b946 f53c
000001f0: 4992 a33d 24f0 9fbd 2312 19be 3152 483d
00000200: cdc6 f9bc ebcd 583d b289 25be 969c 80bd
00000210: a6d4 21bd 1438 19bd e009 2e3d 0423 07be
00000220: 9a9d da3b 1f3f 0bbd f7a0 93bd 6b76 393d
00000230: c23e fdbd 88a6 0dbe df8b 41be 0728 13bd
00000240: f7ea 49bc 4971 85bc ec46 c9bd 5426 943d
00000250: a4f7 6a3d 8ed8 b23d 56dd fa3d e24f 693d
00000260: 25cd da3c 7159 90bd d2a7 9dbd f471 3d3d
00000270: f904 e33d fb70 68bc d886 eabd 4bf9 dfbd
00000280: 6e5a c3bb ca4a 083d 77f8 763d 26d0 dabc
00000290: f7d4 27be bd00 a33d ec97 9f3d da20 35bd
000002a0: ccda 6ebd 4d3f a9bd f5c4 fc3a 8ac2 95bc
000002b0: 119b ffbc 4482 55bd b37b adbd 0f84 f1bc
000002c0: 1db0 0cbd c719 11be 4004 16be 0be3 023e
000002d0: 59d3 12be d14d 8b3e 347d 0bbd 5b50 54be
000002e0: aee5 803e ff44 c2be ca6d d53e 4bf4 9a3d
000002f0: eb19 90be 170c 983e b86a 8fbe 1ba8 f53e
00000300: ca2a 473e 8d95 fcbd 2474 7b3e c58c 64be
00000310: f084 903e cfdc fb3d e2a2 24be 78e6 b33c
00000320: 4b9a a93d 794d 60bc 7d02 603b 11fc ef3c
00000330: 8034 813d 3c59 673d 3c57 2cbd 13e3 d9bc
00000340: c394 e1bc 55a4 b5bd 9983 313e 3937 85bd
00000350: cf78 0a3c c74b 29bd dcb2 25bd 0121 a83c
00000360: c29d f5bd ef4b fcbd dd71 c9bd 467a c5bd
00000370: 84e1 a13c 48b2 82bd 0947 88bd fe1c 443c
00000380: f7b6 99bc c893 a33d 339b 00bd 71c3 f9bc
00000390: 8313 7dbb a54c 3e3b 6d24 353c 27b7 11bd
000003a0: d927 a7bc 92dd 46bd 38a7 10bd d9b2 803b
000003b0: 52e8 2dbd b800 62bc 391d 8fbd dfa5 8fbb
000003c0: 3f09 c33d e8cd acbc 2435 5ebc 23ec b6bd
000003d0: 548f efbc b930 d83d 4d6f 343e 9076 a03d
000003e0: d23f 943d 230b ccbc edbc 0b3e b7e2 7e3d
000003f0: 625c 223d dac2 8cbd 165f 723b f9af 1abd

conv2.bias f4 [16]
0.6057179 -0.62635976 1.1069089 0.49418887 -0.08855233 0.020341616 0.2907312 0.46814412
0.05558234 -0.0003534625 -0.21447563 -0.12414621 -0.12145072 -0.1602711 -0.46340317 0.08909602
00000000: 5410 1b3f 1d59 20bf 31af 8d3f 5306 fd3e
00000010: ed5a b5bd 76a3 a63c b8da 943e 96b0 ef3e
00000020: 4faa 633d ef50 b9b9 809f 5bbe 5e40 febd
00000030: 28bb f8bd 1b1e 24be 2e43 edbe f977 b63d

fc1.weight f4 [120, 400]
-0.03916229 -0.004297073 0.023635095 0.009953113 0.06912685 -0.041024696 0.08627087 0.044300545
-0.000784255 0.030676056 -0.05850992 0.05863717 0.00530314 0.05382851 0.08873182 0.0013862223
-0.014305015 0.017245771 -0.008819208 0.06502186 -0.08817296 -0.0034454472 -0.030555818 -0.036230177
0.03947665 -0.016003106 -0.061307114 -0.049112678 0.0048795994 -0.033781093 -0.0069325445 -0.025756016
0.0002418024 0.0057581146 -0.06673619 0.062239997 0.1339552 -0.025211487 0.04897704 0.025955137
0.14911468 0.1242421 0.08593899 -0.0075877495 0.0639831 0.08982405 0.086485036 0.0514508
-0.006757739 -0.019974662 -0.053860974 0.0068374043 -0.0113918595 -0.019771097 0.01571878 0.04593076
0.042265393 0.0778261 0.03408509 -0.028081166 0.0064542536 0.039720938 0.082113534 0.04491999
0.03901663 -0.035037693 0.044210896 -0.012998144 0.043923996 0.091056086 -0.027736304 -0.017773932
-0.05566648 -0.07236761 -0.04629926 -0.056529522 -0.06458824 -0.05964023 -0.007030621 -0.07001562
0.013217988 -0.0042899973 -0.005845249 0.013709275 -0.0104210805 0.055947896 -0.05722604 0.01197129
0.059425298 0.014402673 0.08710683 -0.0684451 -0.096066914 0.031849883 0.06586616 -0.019442601
-0.02113035 -0.10370623 -0.084593855 -0.0035166075 0.11580274 -0.012599694 -0.020762406 -0.107289195
-0.034727257 0.12625581 -0.06821101 -0.01877138 -0.043925717 0.00093129947 0.025798988 -0.10826937
-0.023482332 0.06328702 0.09518843 0.06732105 -0.045763016 -0.009094574 0.05295672 0.14776994
-0.040556557 -0.07981819 -0.06551264 -0.022854801 0.16011478 5.829765e-05 -0.006657196 0.011125584
0.05053667 0.055740967 0.046137225 0.05704143 0.031327114 0.028894829 0.051016875 0.014382566
-0.02882756 -0.0057634893 -0.04374757 -0.008849311 -0.0037091903 0.019053187 0.014188146 -0.052018013
0.0026209308 -0.023243945 0.027876364 -0.03420569 0.012968801 -0.05234321 0.015296132 0.024165219
0.027311096 -0.028712533 0.037678722 0.03990594 -0.015592604 -0.074822426 -0.04261499 -0.0574421
-0.029548028 -0.020679167 -0.0158528 -0.02719176 -0.054956984 0.052268106 -0.033356894 -0.034133125
-0.051842067 -0.039923258 0.08113479 -0.017861107 -0.035371844 -0.013152985 0.03243661 -0.10033163
-0.028297735 -0.076911286 0.012690861 0.02498927 -0.022540446 -0.019023238 -0.0032922726 0.047304112
0.035144046 -0.022653209 0.021935148 0.00569458 0.026411507 0.059073705 0.031902745 -0.11422622
0.021951122 -0.004004175 0.023732997 0.06401466 -0.004050755 -0.06909315 -0.0059128883 0.0017539688
0.05556033 0.06413272 0.09897784 0.0074226423 0.023546403 0.1063659 -0.046421796 -0.033187475
-0.028133199 0.0060315565 0.06277689 -0.04657061 -0.044500362 -0.08210854 -0.009145984 0.0075514265
-0.051787272 -0.0049047773 0.006345692 -0.06973538 0.059849884 0.011474023 0.033092845 -0.016278503
0.033403363 0.035822604 0.019953731 6.708458e-05 0.034258835 0.0135171665 -0.0030458581 -0.0069486625
-0.03447994 -0.006361148 0.0750087 -0.0817011 -0.030155044 -0.11642188 -0.088066876 0.020603152
-0.10369223 -0.089430965 -0.0025883703 -0.03663224 0.036019027 0.0014817115 0.03736928 0.004946332
0.09709774 0.09303165 0.012812434 0.017895514 0.0005569662 0.07096254 0.028464828 -0.07444011
00000000: a368 20bd 76ce 8cbb 639e c13c 6212 233c
00000010: 6192 8d3d 8309 28bd c8ae b03d 7d74 353d
00000020: 7696 4dba 5a4c fb3c 19a8 6fbd 872d 703d
00000030: f6c5 ad3b 497b 5c3d 07b9 b53d e7b1 b53a
00000040: 955f 6abc 0147 8d3c 707e 10bc 2e2a 853d
00000050: 0694 b4bd 03cd 61bb 3250 fabc 1866 14bd
00000060: 45b2 213d f218 83bc 2b1d 7bbd 602a 49bd
00000070: 0ce5 9f3b 0b5e 0abd 662a e3bb 48fe d2bc
00000080: 568c 7d39 91ae bc3b fcac 88bd 5eef 7e3d
00000090: 8d2b 093e 5288 cebc 269c 483d de9f d43c
000000a0: 85b1 183e a472 fe3d c800 b03d a8a2 f8bb
000000b0: 9209 833d acf5 b73d 111f b13d 13be 523d
000000c0: 0670 ddbb e7a1 a3bc 539d 5cbd 4e0c e03b
000000d0: eca4 3abc fff6 a1bc acc4 803c e521 3c3d
000000e0: 7a1e 2d3d 4a63 9f3d cf9c 0b3d 790a e6bc
000000f0: 347e d33b 6cb2 223d 242b a83d 06fe 373d
00000100: e7cf 1f3d af83 0fbd 7c16 353d 2bf6 54bc
00000110: a6e9 333d 9d7b ba3d 3f37 e3bc a39a 91bc
00000120: 8902 64bd 7835 94bd 4ba4 3dbd 808b 67bd
00000130: d746 84bd 5049 74bd 2061 e6bb 5964 8fbd
00000140: 4390 583c 1b93 8cbb 8189 bfbb de9c 603c
00000150: 2ebd 2abc 9f29 653d da65 6abd 3b23 443c
00000160: f167 733d 30f9 6b3c 1165 b23d f22c 8cbd
00000170: bbbe c4bd 0675 023d d6e4 863d 1746 9fbc
00000180: 8e19 adbc ef63 d4bd 8b3f adbd e276 66bb
00000190: fd29 ed3d f26e 4ebc ec15 aabc 70ba dbbd
000001a0: 2b3e 0ebd 3449 013e 37b2 8bbd 70c6 99bc
000001b0: 74eb 33bd 7322 743a 6658 d33c 55bc ddbd
000001c0: 055e c0bc a09c 813d 27f2 c23d 9edf 893d
000001d0: 0072 3bbd 6801 15bc 25e9 583d 0151 173e
000001e0: a21e 26bd b877 a3bd 7e2b 86bd fe39 bbbc
000001f0: 21f5 233e a084 7438 9c24 dabb 1548 363c
00000200: 8aff 4e3d a450 643d 63fa 3c3d 46a4 693d
00000210: dc50 003d d9b4 ec3c 12f7 503d dba4 6b3c
00000220: c627 ecbc a7db bcbb a730 33bd b3fc 10bc
00000230: e315 73bb 6e15 9c3c 6675 683c d710 55bd
00000240: ecc3 2b3b 166a bebc f95c e43c 441b 0cbd
00000250: 187b 543c d565 56bd a19c 7a3c 23f6 c53c
00000260: 85bb df3c 8c36 ebbc 0155 1a3d 6974 233d
00000270: 1f78 7fbc 803c 99bd 0e8d 2ebd 6848 6bbd
00000280: b50e f2bc 5b67 a9bc bbdd 81bc 41c1 debc
00000290: 931a 61bd 1517 563d 3da1 08bd 2dcf 0bbd
000002a0: 5958 54bd 9286 23bd ff29 a63d 7551 92bc
000002b0: 11e2 10bd 9e7f 57bc 40dc 043d ab7a cdbd
000002c0: a7d0 e7bc aa83 9dbd 54ed 4f3c 4cb6 cc3c
000002d0: bea6 b8bc 9fd6 9bbc 2bc3 57bb f5c1 413d
000002e0: 34f3 0f3d 3993 b9bc 57b1 b33c 9999 ba3b
000002f0: f25c d83c 45f7 713d 74ac 023d 70ef e9bd
00000300: d7d2 b33c 7435 83bb b46b c23c 1e1a 833d
00000310: 32bc 84bb b680 8dbd e7c0 c1bb 6de5 e53a
00000320: 3b93 633d 0458 833d e5b4 ca3d a339 f33b
00000330: 63e4 c03c 5dd6 d93d c824 3ebd 97ef 07bd
00000340: 9877 e6bc 5da4 c53b 2c91 803d d3c0 3ebd
00000350: 0346 36bd 8628 a8bd 0ad9 15bc f571 f73b
00000360: e41e 54bd 41b8 a0bb 86ef cf3b 6cd1 8ebd
00000370: 2725 753d 8afd 3b3c 5d8c 073d 7f5a 85bc
00000380: f7d1 083d b9ba 123d 0276 a33c c2af 8c38
00000390: fe52 0c3d 1b77 5d3c 059d 47bb 9bb1 e3bb
000003a0: d63a 0dbd 2d71 d0bb 299e 993d e852 a7bd
000003b0: b607 f7bc 986e eebd 685c b4bd f1c7 a83c
000003c0: 985c d4bd 9527 b7bd a6a1 29bb b00b 16bd
000003d0: b088 133d fd35 c23a 8810 193d d714 a23b
000003e0: 2edb c63d 6187 be3d 3eeb 513c 9d99 923c
000003f0: 5e01 123a cf54 913d 122f e93c 0e74 98bd

fc1.bias f4 [120]
0.049563132 0.1465395 -0.02111271 -0.05288915 0.011112657 -0.044832747 0.04735066 0.058495946
-0.02900282 -0.09741732 0.08475221 0.0075337873 0.07424358 -0.117405444 -0.023755237 -0.046619106
0.108747765 -0.05857136 0.054144364 0.053509597 -0.03611102 -0.067437954 0.051330786 0.004791286
0.06395274 0.019803574 0.1200846 0.086598195 0.0024469441 0.004671057 -0.13732268 -0.0020607812
-0.015000402 -0.082125224 0.099888645 0.014857796 0.0043495228 -0.049892332 0.19335823 -0.018721003
0.0619934 0.2037606 0.047563326 0.002221546 0.0041695707 0.06026023 0.0239888 -0.0663424
-0.008625362 0.060556654 -0.05907182 0.011683494 -0.04938315 0.034900147 -0.007673612 0.19671652
-0.032099485 0.014412694 0.016421506 -0.020804975 0.012374631 0.15953544 -0.10366247 0.06952425
-0.041833185 0.06161034 0.13794406 -0.008681185 0.0364437 0.05562375 0.20493588 0.023012573
0.10838925 0.081803866 -0.07131388 0.0021298192 0.04041076 0.056591272 0.024799662 0.010039172
0.02138508 -0.013636522 0.16045003 -0.0033289446 0.05340422 0.042505685 0.1329803 0.047301225
-0.0065844106 -0.04413117 -0.021291828 0.057200152 -0.05998509 0.16675623 0.129945 -0.06054218
0.11675666 0.030041149 0.07775093 0.097831614 0.122392386 0.011726394 -0.098565064 0.07023542
0.099672355 -0.02414523 -0.06685213 0.058655888 0.094861336 0.09008041 0.0584145 -0.023545643
0.1934291 0.04818366 0.0068022986 -0.026825199 -0.05952235 0.11488909 0.01405543 -0.03148408
00000000: b602 4b3d 730e 163e 90f4 acbc 4ba2 58bd
00000010: dd11 363c 8ba2 37bd c4f2 413d 7299 6f3d
00000020: 5297 edbc bb82 c7bd 9192 ad3d fddd f63b
00000030: 050d 983d 4472 f0bd 589a c2bc adf3 3ebd
00000040: 26b7 de3d 86e8 6fbd 7bc6 5d3d e12c 5b3d
00000050: 26e9 13bd e91c 8abd 3b40 523d 3800 9d3b
00000060: a7f9 823d 1b3b a23c eaee f53d 655a b13d
00000070: e95c 203b ab0f 993b 519e 0cbe 2c0e 07bb
00000080: 3fc4 75bc 4531 a8bd 6b92 cc3d 1d6e 733c
00000090: 7186 8e3b e75b 4cbd b3ff 453e ca5c 99bc
000000a0: cbec 7d3d 9ea6 503e c3d1 423d 5b97 113b
000000b0: e5a0 883b 6ed3 763d 2984 c43c 86de 87bd
000000c0: 6451 0dbc 410a 783d 4bf5 71bd 206c 3f3c
000000d0: fc45 4abd 75f3 0e3d ec72 fbbb 0e70 493e
000000e0: c07a 03bd 3823 6c3c 6586 863c 326f aabc
000000f0: f7be 4a3c 425d 233e fd4c d4bd bb62 8e3d
00000100: 4659 2bbd 205b 7c3d 3541 0d3e 873b 0ebc
00000110: fd45 153d bbd5 633d b6da 513e dd84 bc3c
00000120: 2ffb dd3d c988 a73d 030d 92bd 7094 0b3b
00000130: c185 253d 40cc 673d a928 cb3c 577b 243c
00000140: c32f af3c b86b 5fbc 034d 243e 6c2a 5abb
00000150: 62be 5a3d 711a 2e3d fd2b 083e eebe 413d
00000160: 0ac2 d7bb e3c2 34bd 336c aebc b54a 6a3d
00000170: edb2 75bd 25c2 2a3e 4d10 053e 14fb 77bd
00000180: 1e1e ef3d db18 f63c e13b 9f3d f15b c83d
00000190: dca8 fa3d 1020 403c 7bdc c9bd 96d7 8f3d
000001a0: 0521 cc3d 38cc c5bc c5e9 88bd 2841 703d
000001b0: a946 c23d 147c b83d 0b44 6f3d cbe2 c0bc
000001c0: 4712 463e 3b5c 453d d1e5 de3b 85c0 dbbc
000001d0: b5cd 73bd f94a eb3d bf48 663c 73f5 00bd

fc2.weight f4 [84, 120]
-0.09832178 -0.07597836 0.019944813 -0.07875371 -0.049337965 -0.017829577 -0.042281087 -0.0124976365
-0.072762966 -0.07087194 0.04769558 -0.076631 -0.08588303 -0.034176596 0.071764626 0.019689318
0.0016734917 0.07003947 0.023054197 -0.011721484 -0.059846852 0.048049044 -0.07417783 0.10023008
0.0068851844 -0.025295286 -0.0853738 0.036448613 0.07865685 0.01634437 -0.04042403 -0.033774626
0.08500249 0.06895237 -0.075615816 0.035905775 -0.08580357 0.045033485 -0.044965893 0.00079596165
0.05158444 -0.048409823 -0.018091083 0.14535841 -0.031736918 -0.056903128 0.032261867 -0.049704332
0.06780071 0.017271787 0.09214024 -0.039377328 -0.08281486 -0.075526334 0.047796573 0.099203944
-0.060671605 -0.08065285 0.06919292 -0.06312635 -0.0009412506 0.04722319 0.010470582 -0.01998384
-0.032354318 -0.08400031 -0.057852972 0.036556955 0.03468198 -0.018845694 0.0528602 0.006684625
0.025375597 0.023598807 0.032485493 -0.060634337 0.08620362 0.024668789 0.08575717 -0.01727785
-0.020646216 -0.025112083 -0.040292926 -0.033909917 0.07919273 0.016468395 0.015982881 0.07914017
0.06860216 0.07003834 -0.002636112 -0.0818275 0.063770905 0.012209656 0.042389307 0.111638635
0.02126809 0.026063727 -0.019041592 -0.05896153 -0.019777803 -0.045823123 -0.05028154 0.058738995
-0.09517889 0.06348489 -0.009772329 -0.03233638 0.058283817 0.0062385155 -0.010226652 -0.02453674
0.092372924 0.004079485 0.038734455 0.050527714 0.013652035 0.03712353 0.026900304 -0.05524245
-0.016567541 -0.068679 -0.016744176 -0.09500676 -0.05141667 0.009151964 -0.017072901 -0.04131684
-0.037320595 0.031996455 0.043404713 -0.017708573 -0.044639874 0.022891767 -0.06841736 -0.014981163
0.101571836 0.06282374 -0.04007319 -0.053735983 0.08818076 -0.07395856 0.0379638 0.024619294
0.049570236 -0.011773599 -0.005688268 -0.048827823 -0.03456418 -0.013251486 0.0077303364 -0.05538039
-0.08693879 0.08195439 0.025676616 -0.028487686 0.019479895 -0.03948635 -0.05755638 0.05430466
-0.078138314 0.04389282 -0.088311866 0.15863702 0.051256236 0.02494506 0.011521847 0.019494569
-0.02066039 -0.006610204 0.08708102 -0.017401157 0.021256318 -0.055307392 0.062282797 -0.04411875
-0.02061982 0.07150657 -0.023357654 -0.07322181 -0.05064809 0.027563773 -0.11186909 -0.10249918
-0.05125157 -0.05128289 -0.0049035726 -0.075482935 0.032250073 -0.023235327 0.052455604 -0.011981554
0.059777375 0.05270306 0.10409759 -0.021467097 0.1549055 0.09317065 -0.04534417 -0.08437699
-0.05459805 -0.048860602 0.054874063 0.022089746 -0.053535752 -0.07232754 0.06271265 0.05726344
0.08167635 -0.07761064 -0.06456948 -0.050820738 -0.0011581032 0.039950293 0.13218318 -0.051174197
0.03251262 0.030865239 0.073212855 -0.10719899 -0.06833724 -0.0014895893 0.15061326 -0.019929359
-0.016244253 -0.08425968 -0.13564909 -0.117356084 -0.0416297 -0.019321581 -0.09186248 -0.065215655
0.0877896 0.067496635 0.0385378 0.044531945 0.03163222 -0.011657583 0.06768915 0.063750654
0.06799229 -0.02289514 -0.070267156 -0.023518912 0.08413503 -0.09026001 -0.009239242 -0.17665046
-0.05625127 0.12126539 -0.09013678 0.03592563 -0.027210623 -0.028775709 0.036389668 0.0064915367
00000000: ee5c c9bd 8b9a 9bbd 4e63 a33c a049 a1bd
00000010: 9b16 4abd 550f 92bc ef2e 2dbd e3c2 4cbc
00000020: c004 95bd 4f25 91bd 715c 433d b7f0 9cbd
00000030: 71e3 afbd c2fc 0bbd 55f9 923d 7e4b a13c
00000040: 1059 db3a db70 8f3d 28dc bc3c 780b 40bc
00000050: f921 75bd 13cf 443d 8cea 97bd 6e45 cd3d
00000060: 1d9d e13b 0f38 cfbc 75d8 aebd 244b 153d
00000070: d816 a13d a1e4 853c ab93 25bd 4357 0abd
00000080: c915 ae3d e636 8d3d 77dc 9abd ef11 133d
00000090: c8b9 afbd 0875 383d 282e 38bd 15a8 503a
000000a0: 354a 533d 6149 46bd c033 94bc d6d8 143e
000000b0: 92fe 01bd 4113 69bd 0525 043d c596 4bbd
000000c0: 19db 8a3d 907d 8d3c 06b4 bc3d 1f4a 21bd
000000d0: d69a a9bd 8dad 9abd 57c6 433d 702b cb3d
000000e0: ca82 78bd 522d a5bd 05b5 8d3d 6348 81bd
000000f0: 42be 76ba 1b6d 413d ce8c 2b3c 26b5 a3bc
00000100: f685 04bd 5b08 acbd 3df7 6cbd bfbc 153d
00000110: b10e 0e3d 4962 9abc f083 583d b30a db3b
00000120: 7ce0 cf3c 4952 c13c 820f 053d b65b 78bd
00000130: 868b b03d 3316 ca3c 75a1 af3d 478a 8dbc
00000140: 4122 a9bc dbb7 cdbc 320a 25bd 20e5 0abd
00000150: cc2f a23d bae8 863c 88ee 823c 3e14 a23d
00000160: 4a7f 8c3d 4370 8f3d 9fc2 2cbb 2d95 a7bd
00000170: 529a 823d 020b 483c 69a0 2d3d cca2 e43d
00000180: 6b3a ae3c 9983 d53c 1dfd 9bbc a581 71bd
00000190: 0f05 a2bc 07b1 3bbd 04f4 4dbd 4d98 703d
000001a0: 26ed c2bd 5e04 823d 1e1c 20bc 2773 04bd
000001b0: 03bb 6e3d 766c cc3b b08d 27bc 4601 c9bc
000001c0: 042e bd3d 33ad 853b 05a8 1e3d 26f6 4e3d
000001d0: c9ac 5f3c d80e 183d 075e dc3c e845 62bd
000001e0: a7b8 87bc 93a7 8cbd 152b 89bc e792 c2bd
000001f0: 499a 52bd 1ff2 153c 78dc 8bbc d93b 29bd
00000200: 7bdd 18bd b70e 033d 24c9 313d 9211 91bc
00000210: 4dd8 36bd 8487 bb3c 671e 8cbd 8d73 75bc
00000220: e504 d03d bca9 803d c923 24bd 431a 5cbd
00000230: 1d98 b43d 9677 97bd ee7f 1b3d 67ae c93c
00000240: 290a 4b3d 0ee6 40bc a764 babb afff 47bd
00000250: 2b93 0dbd c31c 59bc c34e fd3b 8cd6 62bd
00000260: f70c b2bd b4d7 a73d c457 d23c 025f e9bc
00000270: 4d94 9f3c 70bc 21bd 3dc0 6bbd 906e 5e3d
00000280: fb06 a0bd f5c8 333d dadc b4bd be71 223e
00000290: 0ff2 513d 9559 cc3c 21c6 3c3c 13b3 9f3c
000002a0: fa3f a9bc 699a d8bb 8957 b23d df8c 8ebc
000002b0: bb21 ae3c 018a 62bd 3f1c 7f3d ddb5 34bd
000002c0: e6ea a8bc 0972 923d 8d58 bfbc 51f5 95bd
000002d0: 5f74 4fbd 6ccd e13c 9f1b e5bd 17eb d1bd
000002e0: 2bed 51bd 020e 52bd 26ae a0bb cc96 9abd
000002f0: a718 043d 0358 bebc b0db 563d 484e 44bc
00000300: 1fd9 743d 2adf 573d 1e31 d53d c4db afbc
00000310: 8c9f 1e3e 41d0 be3d cfba 39bd d8cd acbd
00000320: 34a2 5fbd 0e22 48bd a0c3 603d 8ef5 b43c
00000330: 4e48 5bbd 7620 94bd 7d6f 803d 128d 6a3d
00000340: ee45 a73d 54f2 9ebd 013d 84bd 6829 50bd
00000350: 7fcb 97ba eba2 233d 075b 073e 099c 51bd
00000360: f42b 053d 19d9 fc3c 9ff0 953d 258b dbbd
00000370: 65f4 8bbd 533e c3ba 5d3a 1a3e e542 a3bc
00000380: ab12 85bc 5790 acbd 98e7 0abe 6358 f0bd
00000390: e883 2abd 4b48 9ebc 6522 bcbd c98f 85bd
000003a0: 09cb b33d ad3b 8a3d d0d9 1d3d 2167 363d
000003b0: c990 013d 72ff 3ebc 9ca0 8a3d b48f 823d
000003c0: 8b3f 8b3d 978e bbbc 3ae8 8fbd bcaa c0bc
000003d0: fd4e ac3d 3dda b8bd 3160 17bc dce3 34be
000003e0: bb67 66bd fd59 f83d a299 b8bd c126 133d
000003f0: d0e8 debc 09bb ebbc 550d 153d f5b6 d43b

fc2.bias f4 [84]
0.005506827 -0.02698549 0.12452037 -0.025593828 -0.11076783 0.15286024 0.08992823 0.12017813
0.020744987 0.070137 -0.08225123 0.3855407 -0.031059327 0.14919329 0.11424363 0.064952165
0.053635135 0.032497358 0.079020016 0.14790508 0.20746316 0.24772151 0.3626902 -0.07683313
0.014835278 -0.025317684 -0.057311974 0.14173171 -0.030583622 0.15402624 0.24651666 0.018283572
-0.062369008 -0.030466363 -0.024191678 0.019826535 0.024487799 0.018200627 0.043223727 -0.07994747
-0.011971012 0.0028901165 0.09130738 0.215554 -0.06768311 0.18253542 -0.0070995926 0.09515453
0.046901677 -0.10961692 0.14532329 0.13907957 0.0049681575 0.15506387 -0.008547131 0.08789217
0.115858935 0.08297695 0.011257485 0.08437905 0.021363728 0.1214664 0.13738982 -0.01926495
0.24599312 0.2827955 0.34152558 0.14474037 0.1323092 0.020889234 -0.004039421 -0.13839456
-0.041964218 -0.08088081 0.21057652 0.005776787 -0.11844613 0.18737784 -0.034529474 -0.0066278763
0.11443409 -0.010333529 0.13942644 -0.06796961
00000000: 9d72 b43b ad10 ddbc 8904 ff3d 26aa d1bc
00000010: 3eda e2bd 6587 1c3e 4b2c b83d f41f f63d
00000020: 64f1 a93c fda3 8f3d 5573 a8bd 9765 c53e
00000030: 2170 febc 20c6 183e 90f8 e93d a405 853d
00000040: 84b0 5b3d f31b 053d 3fd5 a13d 6e74 173e
00000050: 3971 543e b5aa 7d3e 88b2 b93e b05a 9dbd
00000060: aa0f 733c 0867 cfbc f6bf 6abd 1e22 113e
00000070: 818a fabc 0eb9 1d3e dd6e 7c3e 6ec7 953c
00000080: a576 7fbd 9894 f9bc a02d c6bc 426b a23c
00000090: a39a c83c 7b19 953c 5d0b 313d 80bb a3bd
000000a0: 1022 44bc 1c68 3d3b 5dff ba3d 30ba 5c3e
000000b0: 719d 8abd 91ea 3a3e b3a3 e8bb 61e0 c23d
000000c0: f91b 403d d67e e0bd a1cf 143e e06a 0e3e
000000d0: edcb a23b 10c9 1e3e 4409 0cbc cf00 b43d
000000e0: 7347 ed3d d2ef a93d 5071 383c ecce ac3d
000000f0: fc02 af3c 60c3 f83d ebaf 0c3e 87d1 9dbc
00000100: 9fe5 7b3e 92ca 903e 71dc ae3e d236 143e
00000110: 107c 073e e61f ab3c 1f5d 84bb 4eb7 0dbe
00000120: ace2 2bbd d7a4 a5bd 5fa1 573e 344b bd3b
00000130: e293 f2bd fadf 3f3e c76e 0dbd a82e d9bb
00000140: 6c5c ea3d f64d 29bc cec5 0e3e a733 8bbd

fc3.weight f4 [10, 84]
0.024986954 0.13054588 -0.119012825 -0.04794015 0.14361607 -0.20278382 0.0020061547 0.0857433
0.014549052 0.09174204 -0.024330338 -0.24124634 -0.008047318 -0.09305755 0.26384592 -0.038124762
0.20932095 -0.07786934 0.18789752 0.21800378 0.06069316 -0.21494228 -0.16238394 -0.025291124
-0.04633841 -0.06479485 0.07861489 -0.14014615 0.092423804 0.07184275 0.14552242 0.089420296
0.0014011629 0.00082621194 -0.12801343 -0.06833382 0.064381674 -0.09569081 0.17564268 -0.10144597
-0.022395084 0.28014028 -0.14554136 -0.047244307 0.038073238 0.0012149068 -0.06337121 0.12407804
0.01222938 -0.043619283 -0.11084191 -0.13519539 0.058355078 0.34967434 -0.03652091 0.049418617
0.14078099 -0.018424613 -0.08636512 -0.13054767 -0.08632103 -0.030347338 -0.05080378 -0.07824191
-0.2216669 0.31153488 -0.2334654 0.025819363 0.0009849919 -0.060695015 0.021001471 0.25047958
0.23136526 -0.109268576 -0.13603975 0.12194389 -0.112066366 0.17031853 -0.062451694 0.0039790696
0.12002501 -0.04755467 -0.07701914 -0.10040303 0.10860954 0.027831856 0.2664717 -0.02153148
-0.15102877 -0.19217527 -0.26647973 0.15464856 -0.012857122 -0.2539133 0.0288828 -0.21466021
0.05505756 -0.11247473 -0.23909384 0.021611141 -0.019983998 -0.099276006 -0.115225576 0.10334154
-0.03677911 -0.24125645 -0.15054926 -0.105581716 -0.007668911 0.020056574 -0.067019545 -0.09745226
0.009770343 -0.04861687 0.020299098 -0.010601516 -0.061582424 -0.073207036 -0.010975184 0.010939033
0.013516859 0.08873712 -0.013807067 -0.16689228 0.0148236845 -0.17871389 0.011215326 -0.19992018
0.15833108 0.12915997 0.25182614 0.009994466 0.14075954 -0.045450773 -0.0050142757 -0.19436923
-0.051443193 0.37346804 -0.09463608 0.032093726 0.05417474 -0.092205726 0.027938908 0.20087208
0.11177719 -0.053519323 0.1864749 0.059984364 -0.16129455 -0.28970307 -0.12601294 -0.15499848
0.065768786 0.031233393 -0.023615154 0.294379 0.018132778 0.33009604 0.061584998 0.41213337
0.025397433 0.060626898 -0.09267786 0.13635089 0.0632078 0.020073796 -0.17149459 -0.079357184
-0.1720517 -0.16569354 0.023246577 0.027207451 0.16169544 -0.09684216 0.050612383 0.1439721
-0.06315865 0.108601294 0.07180227 0.31947422 -0.06709848 -0.050159752 0.124454744 0.11438781
0.036258128 -0.11399945 -0.08210184 0.10307626 -0.10854675 0.122500524 0.24749717 0.05646388
0.054693114 -0.11456151 -0.041739844 0.21116005 -0.038422413 -0.09063633 -0.02046986 -0.03358912
0.1078611 -0.03460277 0.17737406 -0.10500571 -0.123833895 0.11674529 0.06850532 0.08810029
0.11130563 0.16292237 -0.01667569 0.11860611 -0.12108282 0.010465281 -0.2756189 -0.05174139
0.047349766 0.04348996 -0.019718343 0.100803874 0.077576265 0.0030975866 0.081095584 -0.06859535
0.020876558 0.14870454 -0.14667135 0.09811704 -0.037322853 -0.041763347 -0.20089537 -0.036561467
-0.071570545 0.23303059 0.023432927 -0.10575508 0.087645054 0.03894089 -0.17318079 -0.07445795
0.31218192 0.07807542 0.14543118 -0.17032565 -0.15792306 -0.15852492 0.031540208 0.029598387
0.043174803 -0.073226556 -2.7195825e-05 0.09407022 0.053700708 -0.042217627 0.02900444 0.07395962
00000000: 71b1 cc3c d2ad 053e ffbc f3bd e45c 44bd
00000010: 1710 133e 90a6 4fbe b179 033b 2f9a af3d
00000020: 265f 6e3c 40e3 bb3d 6b50 c7bc 4809 77be
00000030: e6d8 03bc f594 bebd d016 873e b628 1cbd
00000040: 3b58 563e f679 9fbd 3568 403e 623c 5f3e
00000050: 6499 783d d419 5cbe fa47 26be 552f cfbc
00000060: 58cd 3dbd 2ab3 84bd d800 a13d 7982 0fbe
00000070: b148 bd3d 4b22 933d d403 153e fd21 b73d
00000080: 3aa7 b73a 2596 583a f415 03be 9af2 8bbd
00000090: 8ada 833d 8bf9 c3bd addb 333e e8c2 cfbd
000000a0: e575 b7bc 8c6e 8f3e cb08 15be 3f83 41bd
000000b0: aff2 1b3d 823d 9f3a c4c8 81bd a11c fe3d
000000c0: bd5d 483c 22aa 32bd 1501 e3bd a970 0abe
000000d0: bc05 6f3d 8408 b33e f396 15bd 2d6b 4a3d
000000e0: e428 103e 37ef 96bc 32e0 b0bd 4aae 05be
000000f0: 15c9 b0bd fb9a f8bc a017 50bd 4b3d a0bd
00000100: a6fc 62be 8081 9f3e 8e11 6fbe 2183 d33c
00000110: d81a 813a 569b 78bd 470b ac3c dc3e 803e
00000120: 04eb 6c3e 34c8 dfbd 014e 0bbe b8bd f93d
00000130: 0d83 e5bd fb67 2e3e 59cd 7fbd db62 823b
00000140: accf f53d b0c8 42bd 36bc 9dbd 1ba0 cdbd
00000150: ae6e de3d a2ff e33c fb6e 883e c962 b0bc
00000160: 49a7 1abe 98c9 44be 0870 88be 315c 1e3e
00000170: aea6 52bc ed00 82be 9f9b ec3c e3cf 5bbe
00000180: 0984 613d 2759 e6bd 04d5 74be d909 b13c
00000190: 7bb5 a3bc 3851 cbbd 63fb ebbd bba4 d33d
000001a0: b1a5 16bd ee0b 77be 9629 1abe 3a3b d8bd
000001b0: 7d4b fbbb af4d a43c 8b41 89bd 0d95 c7bd
000001c0: ca13 203c 7c22 47bd 4b4a a63c fbb1 2dbc
000001d0: da3d 7cbd 92ed 95bd 42d1 33bc a139 333c
000001e0: d175 5d3c cfbb b53d 0937 62bc cfe5 2abe
000001f0: 0adf 723c c600 37be 7dc0 373c e0b7 4cbe
00000200: 8b21 223e 8342 043e 5bef 803e d4bf 233c
00000210: 4523 103e 972a 3abd cb4e a4bb ba08 47be
00000220: 19b6 52bd 3437 bf3e 90d0 c1bd b674 033d
00000230: 55e6 5d3d 5bd6 bcbd 23e0 e43c 69b1 4d3e
00000240: 70eb e43d 1437 5bbd 47f3 3e3e 2ab2 753d
00000250: 662a 25be f653 94be 8909 01be ecb7 1ebe
00000260: c9b1 863d 2cdd ff3c 9174 c1bc d8b8 963e
00000270: 318b 943c 5902 a93e 8d40 7c3d 2503 d33e
00000280: 470e d03c e953 783d e4cd bdbd 919f 0b3e
00000290: 1773 813d cd71 a43c 479c 2fbe 0586 a2bd
000002a0: 522e 30be 91ab 29be 9b6f be3c 29e2 de3c
000002b0: 7d93 253e 2f55 c6bd ee4e 4f3d 6c6d 133e
000002c0: 5359 81bd 5b6a de3d 120d 933d 2092 a33e
000002d0: ee6a 89bd 5074 4dbd 21e2 fe3d 2844 ea3d
000002e0: 6783 143d 8b78 e9bd 0225 a8bd a519 d33d
000002f0: c24d debd 8ee1 fa3d e66f 7d3e ab46 673d
00000300: e305 603d 3a9f eabd 66f7 2abd 573a 583e
00000310: d260 1dbd 8a9f b9bd 68b0 a7bc bf94 09bd
00000320: 48e6 dc3d a2bb 0dbd 8ca1 353e 3c0d d7bd
00000330: a09c fdbd 2818 ef3d 844c 8c3d ed6d b43d
00000340: 35f4 e33d 1fd5 263e 759b 88bc c3e7 f23d
00000350: 45fa f7bd 9276 2b3c ec1d 8dbe c8ee 53bd
00000360: d4f1 413d 8722 323d 5d88 a1bc 4372 ce3d
00000370: 4ee0 9e3d e100 4b3b 7115 a63d b87b 8cbd
00000380: 5105 ab3c 0146 183e 0431 16be 96f1 c83d
00000390: d9df 18bd 0b10 2bbd 84b7 4dbe 7ac1 15bd
000003a0: 9493 92bd 929f 6e3e 69f6 bf3c 1f96 d8bd
000003b0: 407f b33d 7c80 1f3d 4e56 31be 697d 98bd
000003c0: 4fd6 9f3e 01e6 9f3d e9eb 143e d969 2ebe
000003d0: 95b6 21be 5b54 22be 4e30 013d 5178 f23c
000003e0: 10d8 303d cef7 95bd 9722 e4b7 e3a7 c03d
000003f0: 46f5 5b3d 64ec 2cbd b89a ed3c 2478 973d

fc3.bias f4 [10]
-0.34349954 -0.21972246 0.09104547 0.24595308 0.4604675 -0.1300445 0.39237025 -0.20467128
0.23168212 -0.23127754
00000000: 2cdf afbe edfe 60be 0c76 ba3d 20db 7b3e
00000010: 65c2 eb3e 632a 05be c1e4 c83e 5995 51be
00000020: 143e 6d3e 05d4 6cbe
